models/best_classifier.onnx (onnx, 658999 bytes, 5 tensors)

coefficient f4 [512, 256]
0	0xbd14143c	-0.03615211
1	0x3d957463	0.0729759
2	0x3cfecb8b	0.031102916
3	0xbc7af5e2	-0.015317412
4	0xbd222e51	-0.039594952
5	0xbd556424	-0.052097455
6	0xbda9ec0a	-0.08296974
7	0x3d826dad	0.06368575
8	0x3c0d4161	0.008621545
9	0x3cf5d49f	0.030008612
10	0xbdbbb436	-0.09165232
11	0x3dd87b9a	0.1057045
12	0x3d48c6c0	0.049017668
13	0xbd660b06	-0.056162857
14	0xbd6a53ac	-0.057208702
15	0xbd46f7dd	-0.048576225
16	0xbd35f2db	-0.04442106
17	0xbad3085c	-0.0016100514
18	0xbc43f28b	-0.011959682
19	0xbd2cdca8	-0.04220262
20	0x3cbfa6b6	0.023394924
21	0xbcadb572	-0.021204684
22	0xbd324e81	-0.0435319
23	0xbd0e7aed	-0.0347852
24	0xbc249c2e	-0.010047002
25	0x3d1e3cc4	0.03863217
26	0xbd8b3927	-0.0679801
27	0xbb73b032	-0.0037183878
28	0x38a5c823	7.9050915e-05
29	0xbd98609e	-0.07440303
30	0x3c6c3265	0.014416312
31	0xbd502bb1	-0.050822917
32	0xbda714f4	-0.08158293
33	0x3d4b58b7	0.049645152
34	0x3db43f17	0.08801096
35	0x3d3c3fa6	0.045959137
36	0xbca7246a	-0.020403106
37	0xbd9e14bf	-0.07718801
38	0x3cf62a7a	0.030049551
39	0xbc1f3aa1	-0.009718568
40	0xbd8c7bd0	-0.06859553
41	0xbb76a62e	-0.0037635672
42	0xbdbfee4e	-0.09371625
43	0x3d775db7	0.060392108
44	0xb0a23054	-1.1800787e-09
45	0x3cb216bc	0.021739356
46	0xbc77f6f3	-0.015134561
47	0x3bc2b6a5	0.005942183
48	0x3c954e11	0.018225702
49	0xbd7d511f	-0.06184494
50	0x3d9af022	0.07565333
51	0x3d38ec94	0.045147493
52	0x3d846df4	0.064662844
53	0x3d7eaadb	0.06217466
54	0x3c289c3e	0.010291157
55	0x3d3cd5b2	0.046102233
56	0xbd970f57	-0.07375973
57	0xbd7395e6	-0.059469126
58	0xbd5d7e70	-0.05407566
59	0xbca84707	-0.020541681
60	0xbcd683ab	-0.026185831
61	0xbd441edb	-0.04788099
62	0x3d4b19b8	0.049585074
63	0xbd0c9fad	-0.034331966
64	0xbc268051	-0.010162429
65	0x3b50caf6	0.0031859255
66	0xbd773f22	-0.060362943
67	0x3d675a09	0.05648235
68	0xbdaedd6f	-0.08538329
69	0x3db02201	0.08600236
70	0x3d04d560	0.032430053
71	0xbd6dd3d8	-0.058063358
72	0xbdcc8aad	-0.09987388
73	0x3d138039	0.036010955
74	0x3cda1bf6	0.026624661
75	0x3d18dd30	0.037320316
76	0x3d39345c	0.04521595
77	0xbd9319bb	-0.07182642
78	0xbc48928c	-0.012241971
79	0xbd9b4a35	-0.07582513
80	0x3d92174d	0.071333505
81	0x3cb0f7ef	0.021602599
82	0xbc1b45b8	-0.009477071
83	0xbd96b773	-0.07359209
84	0xbd23460d	-0.039861728
85	0xbd1e84ea	-0.038700975
86	0x3ce04d6d	0.02738067
87	0x3c940e25	0.01807315
88	0x3d8c8f31	0.06863249
89	0xbca45c28	-0.020063475
90	0xbd9adda6	-0.07561807
91	0x3d6b5ee1	0.05746353
92	0x3d6704ff	0.05640125
93	0x3bd61b43	0.0065340116
94	0x3d412ce3	0.047161948
95	0x3c2da6aa	0.010598818
96	0x3b04a31d	0.0020238825
97	0xbbe50757	-0.0069894004
98	0xbdbb91e3	-0.09158685
99	0xbdaed68a	-0.08537014
100	0xbd84d3cc	-0.064857095
101	0x3d2d5f6f	0.04232734
102	0xbcc4c636	-0.024020296
103	0xbbf3e3c6	-0.007442924
104	0x3d795566	0.060872458
105	0xbdc2ba4c	-0.095081896
106	0xbc3b1653	-0.011418897
107	0x3d1c3509	0.038136516
108	0xbd32958f	-0.04359966
109	0xbd88c84e	-0.0667883
110	0xbd3feb53	-0.046855282
111	0xbd8a35c1	-0.06748534
112	0x3da95aa6	0.08269243
113	0x3d443d1a	0.047909833
114	0xbad7298e	-0.0016415583
115	0x3d71e6d9	0.059058044
116	0x3d81c7cb	0.063369356
117	0xbd86f258	-0.06589192
118	0x3d6c0043	0.057617437
119	0x3c308f48	0.010776348
120	0x3d9c8a9f	0.076436274
121	0x3da34294	0.07971683
122	0x3b83351b	0.0040041334
123	0xbdab911a	-0.08377285
124	0xbd451e71	-0.048124734
125	0xbca7f104	-0.020500667
126	0x3da2ab7f	0.079428665
127	0x3d864b68	0.06557351
128	0xbdbec919	-0.093157
129	0xbb239731	-0.0024961943
130	0xbc77c75c	-0.015123215
131	0xbd976ade	-0.0739343
132	0xbd6398bc	-0.05556558
133	0xbd0bf57c	-0.03416966
134	0x3db49725	0.08817891
135	0xbca6dd97	-0.020369334
136	0x3c68fe2e	0.014220757
137	0x3cf7f3bb	0.030267587
138	0xbd589bd0	-0.05288297
139	0x3d966754	0.07343927
140	0x3d9a18bd	0.0752425
141	0xbd5b81d0	-0.053590596
142	0xbc1c953c	-0.009557065
143	0xbd3e7de3	-0.046506774
144	0xaf992d00	-2.7862512e-10
145	0xbdabad4b	-0.083826624
146	0x3ccd4a0b	0.02505972
147	0x3a677e25	0.00088307477
148	0xbd7ee993	-0.062234472
149	0xbd3f920e	-0.046770148
150	0x3d81b232	0.06332816
151	0xbd48158b	-0.04884867
152	0xbd8b05db	-0.06788226
153	0xbbdb3883	-0.0066900863
154	0x3d9f0e30	0.07766378
155	0xbcf71f3b	-0.030166259
156	0x3d83fcfc	0.06444737
157	0x3d5e9dd1	0.054349724
158	0xbcf8be63	-0.030364221
159	0x3d5c763d	0.0538237
160	0xbd0b05d6	-0.033941112
161	0x3ccb3d45	0.024809489
162	0x3c8d0589	0.017214553
163	0x3cf541cd	0.029938603
164	0xbd9d4f7e	-0.076811776
165	0x3d491876	0.049095593
166	0xbd05f98b	-0.032708686
167	0xbd6d8c98	-0.05799541
168	0xbd80af7f	-0.06283473
169	0x3ceee187	0.029160274
170	0x3cca2e02	0.024680141
171	0xbd8a3202	-0.067478195
172	0xbb56becb	-0.003276753
173	0xbd6c5be0	-0.057704806
174	0x3cac9ca4	0.021070786
175	0xbd417d01	-0.047238354
176	0x3d5a2b94	0.053264216
177	0xbc42b604	-0.011884216
178	0x3dae26f8	0.085035264
179	0xbd8d074b	-0.06886157
180	0xbce23c16	-0.027616542
181	0xb4552cea	-1.985351e-07
182	0x3da3c58b	0.07996663
183	0x3d7f3a30	0.06231135
184	0xbce5f26f	-0.028069703
185	0x3d357c8f	0.04430824
186	0x3d449023	0.047989022
187	0x3b37c444	0.0028040567
188	0x3ad5bac4	0.0016306271
189	0xbd5b785d	-0.053581584
190	0xbc74c226	-0.014938867
191	0x3d05fa60	0.03270948
192	0x3d8a14a9	0.06742222
193	0x3c4e8f05	0.012607341
194	0xbca2ff35	-0.019897083
195	0xbd058460	-0.032596946
196	0x3d40be5d	0.047056545
197	0x3d85fc87	0.065423064
198	0x3d8f164e	0.06986676
199	0x3d1ff36a	0.039050497
200	0x3d03ad53	0.032147717
201	0xbdb03f29	-0.08605797
202	0xbd8a384e	-0.067490205
203	0x3d8038c2	0.06260826
204	0x3c857fff	0.016296385
205	0xbdc2eba9	-0.09517605
206	0xbd8aa3f6	-0.06769554
207	0x3cf20873	0.029545045
208	0xb6119bf8	-2.169747e-06
209	0xbd5a6f2e	-0.053328685
210	0x3c3878bb	0.011259253
211	0x3d0e8d62	0.034802802
212	0x3ca7a870	0.02046606
213	0xbb7c3a16	-0.003848677
214	0x3b153ea0	0.0022772923
215	0xbd1933cf	-0.037402924
216	0xbb1d5072	-0.0024004248
217	0x3d1ac97c	0.037789807
218	0x3cf4da1e	0.029889163
219	0x3d54bef5	0.051939923
220	0x3cf2d529	0.029642658
221	0x3c8e1d38	0.017347917
222	0xbd84555e	-0.06461595
223	0xbc6b705d	-0.014370051
224	0xbcf08c51	-0.029363783
225	0xbd66b58a	-0.056325473
226	0x3dca55e0	0.098796606
227	0xbc97f035	-0.018547157
228	0x3d7c08e4	0.061531916
229	0x3ca0d79f	0.019634066
230	0x3d396d04	0.04526998
231	0xbb91b793	-0.0044469326
232	0x3c421a51	0.011847095
233	0xbc0f52e9	-0.008747795
234	0xbd6521b9	-0.055940364
235	0x3d094e2c	0.033521816
236	0xbd2a97ce	-0.04164868
237	0xbd5129e1	-0.05106533
238	0x3c7995f8	0.015233509
239	0xbd80d8d6	-0.06291358
240	0x3d8651b2	0.06558551
241	0x3d95659f	0.07294773
242	0x3d8cbb4b	0.06871661
243	0xbce37688	-0.027766481
244	0xbdbec6f9	-0.09315295
245	0x3dbd60b0	0.09246957
246	0xa9a044ce	-7.117363e-14
247	0x3dbf0dd6	0.09328811
248	0x3daf8b22	0.08571459
249	0x3d671e61	0.056425456
250	0xbcc35ec9	-0.023848908
251	0xbcfd90d1	-0.030952843
252	0x3d79cd80	0.060986996
253	0xbd36c321	-0.044619683
254	0xbd838b0b	-0.06423005
255	0x3cb85644	0.022502072

intercepts f4 [1, 256]
0	0xbc5d6631	-0.013513134
1	0xbd5da8de	-0.054116122
2	0x3d9bff39	0.07617039
3	0x3dbec4ae	0.093148574
4	0xbd3a54c7	-0.045491006
5	0x3dafc436	0.08582346
6	0x3d8f7fc1	0.07006789
7	0x3da801a8	0.08203441
8	0x3d4dd554	0.050252274
9	0xbc133380	-0.0089844465
10	0xbc873de9	-0.016509013
11	0xbd9f8ff2	-0.07791127
12	0xbd7b4511	-0.061345164
13	0x3d130033	0.035888862
14	0xbd92b3da	-0.0716321
15	0xbdbb8be8	-0.091575444
16	0x3d60031f	0.054690477
17	0xbccdb3fd	-0.02511024
18	0xbcb90983	-0.022587543
19	0xbd38dec6	-0.04513433
20	0x3d80ca58	0.06288594
21	0x3d3485d1	0.04407293
22	0xbbcc094d	-0.0062266947
23	0x3b86729e	0.004103019
24	0xbd1b1f03	-0.037871372
25	0xbd799c54	-0.0609401
26	0xbcc84d45	-0.024450907
27	0x3d2eef7c	0.04270886
28	0x3d953c25	0.07286862
29	0xbc51ef05	-0.012813334
30	0x3d8686ec	0.06568703
31	0xbd13c6b8	-0.036078185
32	0xbca375cd	-0.019953633
33	0xbccfefee	-0.025382962
34	0xbd1e7940	-0.03868985
35	0xbcd8361c	-0.026392989
36	0xbcffc5e6	-0.031222295
37	0xbd62f8db	-0.05541311
38	0x3ab9fd48	0.0014189864
39	0x3d0c4e57	0.0342544
40	0x3d1e369f	0.03862631
41	0x3d434737	0.047675338
42	0x3c5336a3	0.012891444
43	0xbd149563	-0.03627528
44	0xbd2bbb18	-0.041926473
45	0xbc9054ce	-0.017618563
46	0xbd253f6e	-0.040343694
47	0x3bfae318	0.007656466
48	0xbdad7db5	-0.08471242
49	0xbc3299a3	-0.010900888
50	0x3d117968	0.035516173
51	0xbd0e5b9c	-0.034755334
52	0x3d8a76ab	0.06760915
53	0xbd7f2128	-0.06228748
54	0x3d3540a2	0.04425109
55	0x3d2f6e12	0.04282958
56	0xbcb724c0	-0.022356391
57	0xbdc0b20f	-0.09408962
58	0xbd83d3da	-0.06436892
59	0x3c8048e0	0.01565975
60	0x3d864270	0.06555641
61	0xbc93de28	-0.018050268
62	0x3d253ba8	0.040340096
63	0xbd5926a2	-0.05301536
64	0x3d8313e4	0.06400278
65	0xbd3d2c9a	-0.046185113
66	0xbd811953	-0.06303658
67	0x3b27b72f	0.0025591364
68	0xbc19c94a	-0.00938637
69	0x3c7177a0	0.0147379935
70	0xbb2787d3	-0.0025563135
71	0xbc985e6b	-0.01859971
72	0x3d0263a1	0.031833295
73	0x3d442188	0.04788354
74	0xbc75da9d	-0.015005735
75	0x3d6635e2	0.05620373
76	0xbcf72e06	-0.030173313
77	0x3d9e96d3	0.07743611
78	0xbd4be169	-0.049775515
79	0x3c5465a3	0.012963685
80	0x3d9b6af4	0.07588759
81	0xbd422be9	-0.047405157
82	0x3dc4dfc8	0.096129954
83	0x3d6bab9e	0.057536714
84	0xbcbff3ab	-0.02343162
85	0xbb5978e1	-0.0033183622
86	0xbd8c78a6	-0.06858949
87	0xbc7e41a8	-0.015518583
88	0x3da78197	0.08179014
89	0x3db16c63	0.08663251
90	0xbd8af8fd	-0.06785772
91	0xbda7ed4c	-0.08199558
92	0xbd96b1e2	-0.07358147
93	0x3c2d4cb5	0.01057737
94	0x3da62063	0.08111646
95	0xbda2fd15	-0.07958428
96	0xbd08d351	-0.033404652
97	0x3db85426	0.09000425
98	0x3a0d665d	0.00053939765
99	0x38c481ef	9.37021e-05
100	0xbd941881	-0.07231236
101	0xbcad6dd7	-0.02117054
102	0xbbc75e60	-0.0060842484
103	0xbb62dce0	-0.0034616515
104	0x3d944d78	0.072413385
105	0x3d8acbcf	0.06777155
106	0xbc1ca92d	-0.009561819
107	0xbdbee34f	-0.093206994
108	0x3d858aaf	0.065205924
109	0x3c846586	0.016161691
110	0xbd88b751	-0.0667559
111	0x3c9d39c9	0.019192593
112	0x3c6c81d0	0.014435247
113	0xbcfc42e4	-0.030793615
114	0xbd4f309c	-0.050583467
115	0xbdb8b568	-0.090189755
116	0x3d1f3d35	0.03887673
117	0xbd96befa	-0.07360645
118	0x3d93e5b0	0.07221544
119	0xbd82bff3	-0.06384268
120	0x3cb599d0	0.02216807
121	0x3d474f06	0.048659347
122	0x3d6c6deb	0.057722013
123	0x3d8f0224	0.0698283
124	0x3c9511a0	0.01819688
125	0xbd5ebaff	-0.054377552
126	0xbd628f51	-0.05531246
127	0xbc64be87	-0.013961441
128	0x3cb2196e	0.021740641
129	0x3d643868	0.055717856
130	0x3b304318	0.002689546
131	0x3d3c746e	0.046009474
132	0x3d2ebfce	0.042663388
133	0xbd9567a2	-0.07295157
134	0x3d6d60e7	0.05795374
135	0xbbcfad49	-0.006337796
136	0xbd96f07d	-0.07370088
137	0x3c844c96	0.0161498
138	0x3d9b2f16	0.0757734
139	0x3d2f7760	0.042838454
140	0xbd972cbf	-0.073815815
141	0x3d3c7b24	0.046015874
142	0xbda7e34d	-0.08197651
143	0x3cad10f6	0.021126252
144	0xbd8b5fb9	-0.06805367
145	0x3cc172b3	0.023614263
146	0xbd79f748	-0.06102684
147	0x3d8a010b	0.0673848
148	0x3ccf5cbe	0.025312778
149	0xbc97a366	-0.018510532
150	0x3da0a50d	0.07843981
151	0xbd6d99c9	-0.05800799
152	0x3d8762f8	0.06610674
153	0xbd95b1fb	-0.07309338
154	0x3d23dcd1	0.04000551
155	0xbd5f0ac1	-0.054453615
156	0xbd8549f5	-0.06508247
157	0x3d8bc422	0.06824519
158	0xbbe5c655	-0.0070121684
159	0xbd0d865c	-0.034551963
160	0x3c824f63	0.015906995
161	0x3d711dd9	0.058866356
162	0xbcad9af3	-0.02119205
163	0xbd0aad33	-0.033856582
164	0xbd1e902a	-0.038711704
165	0x3d01028f	0.03149658
166	0x3d046073	0.032318544
167	0x3d8b3c58	0.06798619
168	0xbda18765	-0.078871526
169	0xbd80b709	-0.06284911
170	0x3c120cf2	0.008914219
171	0xbcef3bb2	-0.02920327
172	0xbc9116b4	-0.017711021
173	0x3da0230a	0.07819183
174	0xbd932947	-0.071856074
175	0x3ceda1d6	0.029007833
176	0x3d87177d	0.06596277
177	0xbd8c0802	-0.06837465
178	0x3cd46fb7	0.025932176
179	0x3d595d69	0.0530676
180	0xbd7180b1	-0.05896062
181	0xbd842e3c	-0.06454131
182	0xbd81f320	-0.063452005
183	0x3d0a723b	0.033800345
184	0xbb889259	-0.0041678366
185	0x3bc6aec4	0.006063314
186	0xbda1a7d6	-0.0789334
187	0xbd87348c	-0.066018194
188	0x3cf29c49	0.029615538
189	0xbc80b932	-0.015713308
190	0x3d4c470c	0.049872443
191	0x3d631110	0.055436194
192	0x3d40edef	0.04710191
193	0x3d82afbe	0.063811764
194	0x3d735ee5	0.05941667
195	0x3acd82b6	0.0015679214
196	0xbd116a87	-0.035501983
197	0x3c0616f5	0.008184184
198	0xbd46d1dd	-0.048539985
199	0xbd84c391	-0.06482614
200	0x3aa911fe	0.0012899039
201	0x3cdb230e	0.026750114
202	0xbc8cac88	-0.017172113
203	0x3d5ba87f	0.053627487
204	0x3c37e618	0.011224292
205	0x3db4d6ff	0.0883007
206	0xbd7f8dfb	-0.062391263
207	0xbd0ff984	-0.035150066
208	0xbd9b6eb5	-0.07589475
209	0x3c30f542	0.0108006615
210	0xbda4fda5	-0.08056191
211	0x3cc1bfb1	0.023650976
212	0xbd3664b4	-0.04452963
213	0x3d2dc8b0	0.04242772
214	0xbda9e1f8	-0.08295053
215	0xbcf3a42a	-0.029741365
216	0x3d6acbc8	0.057323247
217	0xbda8ac6f	-0.08236014
218	0x3d8ee78a	0.06977756
219	0xbd0f9c16	-0.035060965
220	0xbd9a7a07	-0.07542806
221	0x3d91370f	0.0709058
222	0xbc5b3fe3	-0.013381931
223	0xbc357250	-0.0110746175
224	0x3d1f32c6	0.03886678
225	0xbbecb602	-0.0072238455
226	0x3d70e595	0.058812696
227	0x3c338e88	0.010959275
228	0xbd27f455	-0.041004498
229	0x3ca75418	0.020425841
230	0xbd987c0c	-0.07445535
231	0xbbc57b96	-0.0060266955
232	0xbcb85288	-0.022500291
233	0xbcd0a36d	-0.025468552
234	0x3d1aebdb	0.037822586
235	0xbd87f4f5	-0.06638519
236	0xbda6160f	-0.08109676
237	0x3d890286	0.066899344
238	0x3d552474	0.052036718
239	0x3d8af03e	0.06784104
240	0x3d1a0509	0.03760246
241	0x3d782d64	0.060590163
242	0xbd086e1b	-0.03330813
243	0xbd89dd95	-0.067317165
244	0x3d29fffb	0.041503888
245	0xbc5fd41c	-0.013661411
246	0xbd2442de	-0.040102832
247	0x3ca2e67e	0.019885298
248	0xbd58c3c3	-0.052921068
249	0x3c223a5a	0.009901607
250	0x3d8d9359	0.0691287
251	0x3d042b16	0.032267652
252	0xbb37258c	-0.0027945964
253	0xbc6a7e69	-0.014312365
254	0xbd1baf61	-0.03800905
255	0x3d58aa81	0.05289698

coefficient1 f4 [256, 128]
0	0x3d981146	0.0742517
1	0x3cfa9268	0.03058739
2	0x3d75116e	0.059831075
3	0xbe0eb410	-0.13935876
4	0xbddb1dce	-0.10699044
5	0xbddabf3f	-0.106810085
6	0x3d11a767	0.035560038
7	0xbca444d2	-0.020052347
8	0x3d853caf	0.06505715
9	0x3d15f58c	0.036611125
10	0x3d136588	0.0359855
11	0xbd8ad5d4	-0.06779066
12	0xbda2face	-0.079579934
13	0x3d052037	0.032501426
14	0xbdcb3f4d	-0.09924183
15	0x3cdb90f0	0.02680251
16	0x3e051a62	0.12998345
17	0xb9079cd5	-0.00012933028
18	0xbdbf28f0	-0.0933398
19	0x3e09f831	0.13473584
20	0xbd6fa825	-0.058509964
21	0x3bfc914e	0.0077077514
22	0x3d6dd58c	0.058064982
23	0xbd4039a9	-0.04692999
24	0xbcfb67e4	-0.030689187
25	0x3db0c034	0.0863041
26	0x3d41a4a1	0.047276143
27	0xbd1f1130	-0.03883475
28	0x3da7d1d3	0.08194318
29	0x3d963786	0.07334809
30	0xbd8dc235	-0.06921808
31	0x3da7f6e8	0.082013905
32	0xbdf5f1ee	-0.12009035
33	0x3d57fa22	0.05272878
34	0x3e05478d	0.13015576
35	0x3c3858f1	0.011251674
36	0xbce16ad6	-0.027516764
37	0x38281f6e	4.0083592e-05
38	0x3dd77c94	0.10521808
39	0xb3bbcce6	-8.745137e-08
40	0xbe08457a	-0.13307753
41	0x3ddbfe49	0.107418604
42	0xbd801426	-0.06253843
43	0x3c74d920	0.014944345
44	0x3de7e7b5	0.113234915
45	0xbdd6f95d	-0.10496781
46	0x3dadb22f	0.084812514
47	0x3b94b5db	0.0045382804
48	0xbdb39b44	-0.08769849
49	0xbde24224	-0.110477716
50	0x3d5331a8	0.051561028
51	0x3db0203e	0.085999
52	0x3d17018a	0.036866702
53	0x3b759a3b	0.0037475962
54	0x3d1652cf	0.036700066
55	0x3d3442da	0.044009067
56	0xbd3a30ad	-0.045456577
57	0x3b2131ca	0.0024596327
58	0x3db2977e	0.08720301
59	0xbe14c455	-0.1452802
60	0x3de33a3b	0.11095091
61	0x3e16c2b9	0.14722718
62	0xbc5dd6a5	-0.013539945
63	0xbd26f26d	-0.04075854
64	0xbd95056c	-0.07276425
65	0x3dec43ae	0.115363464
66	0xbdf5e46e	-0.1200646
67	0xbd9919fd	-0.0747566
68	0x3cff246f	0.031145303
69	0xbdb00014	-0.08593765
70	0x3dca775a	0.09886046
71	0x3c36ef21	0.011165411
72	0xbdffbb13	-0.124868535
73	0x3b0c5d88	0.0021418054
74	0xbd4ff455	-0.050770123
75	0x3c6322d4	0.013863284
76	0xbb36c7f3	-0.0027890175
77	0xbdcdc90c	-0.10048112
78	0xbd8b3e3f	-0.06798982
79	0x3d97deb6	0.074155256
80	0x3d4dba86	0.05022671
81	0xbe11370f	-0.1418116
82	0xbdada7e7	-0.084792905
83	0x3d83c29f	0.064336054
84	0xbd5df819	-0.054191682
85	0xbc30786a	-0.010770896
86	0x3dae8ffc	0.085235566
87	0x3e105180	0.1409359
88	0xbca28977	-0.019840939
89	0x3d85c905	0.06532482
90	0x3caabbf3	0.020841574
91	0xbd318edb	-0.04334913
92	0xbe1547ba	-0.14578143
93	0x3d2f1713	0.042746615
94	0x3df93ba4	0.12169579
95	0x3d2f5db8	0.042813987
96	0x3e1fef18	0.15618551
97	0xbe16707a	-0.14691344
98	0x3e1e8a87	0.15482531
99	0x3ded92f8	0.11600298
100	0xbd8283b8	-0.063727796
101	0xbdaa8fdb	-0.083282195
102	0xbd8bd001	-0.06826783
103	0xbdf7f784	-0.12107757
104	0x3de99425	0.114052095
105	0xbd536b50	-0.051616013
106	0xb8ebba72	-0.00011240401
107	0xbd506e99	-0.050886724
108	0xbb22c455	-0.0024836261
109	0xbd8a1950	-0.06743109
110	0x3d9f79a7	0.07786875
111	0x3dddff0a	0.108396605
112	0x3d2fdf00	0.04293728
113	0xbceff5df	-0.029292045
114	0xbd9469d4	-0.072467476
115	0x3dc0d498	0.09415549
116	0x3b5797bf	0.0032896844
117	0x3bfac79a	0.007653189
118	0x3e157b17	0.14597736
119	0xbd58967a	-0.05287788
120	0xbd35b914	-0.044365957
121	0xbd432c1c	-0.047649488
122	0xbd8cdaf4	-0.068776995
123	0x3e0ec8e0	0.13943815
124	0x3de055a5	0.109538354
125	0x3c0c849a	0.008576537
126	0xbe120e7b	-0.14263336
127	0x3d8c6270	0.06854713
128	0xbde41313	-0.111364506
129	0xbda80621	-0.08204294
130	0xbde0eb6b	-0.109824024
131	0xbdc219a7	-0.09477549
132	0x3ce248fb	0.02762269
133	0xbdc19104	-0.09451488
134	0x3d275102	0.04084874
135	0x3d9c2a63	0.07625272
136	0xbc88c7ef	-0.016696898
137	0x3cd46ca9	0.02593072
138	0xaf30d313	-1.6082095e-10
139	0x3d8cbd28	0.06872016
140	0x3dec8157	0.11548107
141	0xbd402c6e	-0.04691737
142	0x3ca8c150	0.020599991
143	0x3de31b17	0.11089151
144	0xbde085f9	-0.10963053
145	0xb2b8acde	-2.149903e-08
146	0xbd9f3022	-0.077728525
147	0x3c8f1464	0.017465778
148	0xbdb1f4f4	-0.08689299
149	0xbd21b3aa	-0.03947798
150	0xbbdbb176	-0.0067045046
151	0xbdf16927	-0.11787634
152	0xbd6bbedb	-0.05755506
153	0xbd7c0de9	-0.061536703
154	0xbc3047da	-0.010759318
155	0x3e069554	0.13142902
156	0x3defc87d	0.11708162
157	0xbd9395cf	-0.07206308
158	0x3d7a9c0b	0.06118397
159	0x3dd68bdc	0.10475895
160	0xbaa82cd7	-0.0012830746
161	0x3d896711	0.067091115
162	0xbc69ae8a	-0.014262805
163	0x3c946296	0.018113416
164	0xba191c96	-0.00058407465
165	0xb1e03fd6	-6.5265153e-09
166	0xbda3a2fb	-0.079900704
167	0xb2471a9c	-1.1589375e-08
168	0x3db27c4c	0.08715114
169	0x3db403ad	0.087897636
170	0x36436f7c	2.9122157e-06
171	0xbd6eee77	-0.058332887
172	0x36d54acc	6.356602e-06
173	0xbdae0896	-0.084977314
174	0x3da87166	0.08224754
175	0xbd495e0f	-0.049161967
176	0x3d0312f3	0.032000493
177	0x3d68fd81	0.056882385
178	0xbdc9a5de	-0.0984609
179	0xbd2ca637	-0.042150702
180	0x3d1d9424	0.038471356
181	0x3c94bcc1	0.018156411
182	0x3dd27cb6	0.10277693
183	0x3d313353	0.043261837
184	0xbd887983	-0.066638015
185	0x3d82879c	0.06373522
186	0x3dd7de73	0.10540476
187	0x3cfc0386	0.030763399
188	0xbc7179ff	-0.014738559
189	0x3dad0f20	0.084501505
190	0xbb7c6e55	-0.0038517911
191	0xbdbf357a	-0.09336372
192	0xb7355e8a	-1.0810452e-05
193	0xbc978829	-0.018497543
194	0x3d3a4afc	0.045481667
195	0x3d2cd4f9	0.042195294
196	0x3aeb0e47	0.0017933332
197	0xbc0c1a11	-0.008551137
198	0x3d40ac88	0.04703954
199	0x37ccdf5f	2.442271e-05
200	0xbd745c4a	-0.059658326
201	0x3cb6f3ff	0.022333143
202	0x35fee269	1.8990369e-06
203	0xbd893e33	-0.06701317
204	0xbd868dc2	-0.06570007
205	0x3dd1c4c5	0.10242609
206	0x3dfa7c7f	0.12230777
207	0x3d22fe67	0.0397934
208	0x3cef13c6	0.029184233
209	0xb99dd2b4	-0.0003010236
210	0x3d9f8ed0	0.07790911
211	0x3de05fec	0.10955796
212	0xbd109b4d	-0.035304356
213	0xbd37bc57	-0.04485735
214	0x3de3ed73	0.11129274
215	0x3c4509dd	0.012026277
216	0xbd9793a2	-0.074012056
217	0x3db53ae1	0.08849121
218	0xbdbb2753	-0.0913836
219	0xa76966f9	-3.2391067e-15
220	0x3d6b5b3f	0.057460066
221	0x3db41e1e	0.08794807
222	0xbdc4dbd1	-0.09612239
223	0x3d1b3e3f	0.03790116
224	0x3dac3fa2	0.084105745
225	0x3c813a78	0.01577495
226	0xbd5a64ea	-0.053318895
227	0x3d556a9c	0.052103624
228	0x3dce37f5	0.10069267
229	0x3de9888f	0.114029996
230	0x3d773a1b	0.060358148
231	0xbd99ab60	-0.0750339
232	0xbd7ba7dd	-0.061439384
233	0xbd1c2504	-0.03812124
234	0xb53b4316	-6.976055e-07
235	0xbd95c442	-0.07312824
236	0xbd9bdb7f	-0.07610225
237	0xbdda09a4	-0.1064637
238	0x399309a0	0.00028045196
239	0xbcf04408	-0.029329315
240	0x3df87fde	0.12133764
241	0xbc55bd22	-0.013045581
242	0x3ce131aa	0.027489502
243	0x3df4daef	0.11955821
244	0x3da5760e	0.08079158
245	0x3d5d0efc	0.05396937
246	0x3dee151f	0.11625122
247	0x3da411bb	0.08011194
248	0x3db50caf	0.0884031
249	0x3de0dc21	0.10979486
250	0x3becfe6c	0.007232478
251	0xbd9e627d	-0.07733629
252	0x3db52f9c	0.088469714
253	0x3da21953	0.079149865
254	0x3c58445a	0.01319989
255	0x3d7bf95c	0.061517105

intercepts1 f4 [1, 128]
0	0xbccae7f7	-0.024768813
1	0x3d88e29b	0.066838466
2	0xbdef7113	-0.11691489
3	0xbcb6ca55	-0.022313276
4	0xbc5c630b	-0.013451348
5	0xbb11f489	-0.0022270998
6	0xbc84446f	-0.016145913
7	0xbd4d04c1	-0.05005336
8	0x3c9323d0	0.017961413
9	0x3dc5d469	0.09659655
10	0xbd38f9c8	-0.045160085
11	0xbdcef419	-0.10105152
12	0x3c0d0f17	0.008609555
13	0x3db38acf	0.0876671
14	0xbda71994	-0.081591755
15	0x3db61412	0.08890547
16	0x3d6c73e2	0.057727702
17	0x3b2d6986	0.0026460602
18	0xbc6fa361	-0.014626355
19	0xb88ed6c0	-6.811088e-05
20	0x3d565e03	0.05233575
21	0xbbe16a99	-0.0068791625
22	0x3d64d3c3	0.055866014
23	0xbddd1d08	-0.10796553
24	0x3df90487	0.12159067
25	0xbca9da4c	-0.020733975
26	0x3dc696d2	0.096967354
27	0x3d00ee37	0.03147718
28	0x3d39c1a4	0.045350686
29	0xbda0430e	-0.0782529
30	0xbdd85b33	-0.1056427
31	0xbd94520c	-0.07242212
32	0x3bf738b0	0.0075445995
33	0xbdec4b2f	-0.11537778
34	0x3dbea4c6	0.09308772
35	0xbcca0df4	-0.024664856
36	0xbbf935bc	-0.0076052826
37	0xbdb65f79	-0.08904929
38	0x3db07fce	0.08618127
39	0x3d092dd9	0.03349099
40	0xbdc59183	-0.09646895
41	0xbdaffae0	-0.085927725
42	0xbde24f04	-0.11050227
43	0x3d2c1d5a	0.04202018
44	0xbdb13f4c	-0.08654651
45	0x3be0fd19	0.006866109
46	0x3d57175c	0.05251251
47	0x3b8421a0	0.0040323287
48	0xbb64699e	-0.0034852992
49	0xbddaec25	-0.10689572
50	0x3b182d55	0.002322038
51	0xbdd0c6d1	-0.10194171
52	0xbe009242	-0.12555793
53	0x3dbc2677	0.09187024
54	0x3dc94b3e	0.098288044
55	0xbddfacda	-0.10921641
56	0x3d159303	0.036517154
57	0xbd7d00a5	-0.061768193
58	0xbc8e6ffb	-0.01738738
59	0x3ba1e9cf	0.0049412022
60	0xbc0b8f54	-0.008518059
61	0x3d0a66cd	0.033789445
62	0xbd88703b	-0.06662031
63	0x3d8a4656	0.06751697
64	0xbd56d122	-0.05244554
65	0x3dcf8cdb	0.10134288
66	0xbded7f0f	-0.115965
67	0xbde74880	-0.11293125
68	0xbddab749	-0.1067949
69	0x3d21a92a	0.039467968
70	0xbdcc7b3f	-0.09984445
71	0xbd5fb354	-0.05461438
72	0xbd296903	-0.041359913
73	0x3d1cb7b4	0.03826113
74	0x3d3be12e	0.045869045
75	0x3dc66648	0.09687477
76	0xbdc0453f	-0.09388208
77	0xbdaf24c8	-0.08551937
78	0xbd8b9f0c	-0.06817445
79	0xbd6c48ff	-0.057686802
80	0x3d62249d	0.0552107
81	0x3c071770	0.008245334
82	0x3c969b05	0.018384466
83	0xbd3de2d0	-0.046358883
84	0x3d84df02	0.06487848
85	0xbc2f0243	-0.010681692
86	0xbb5c0df8	-0.0033577662
87	0xbd5e5ec0	-0.05428958
88	0xbd5d0a20	-0.053964734
89	0x392ac8b1	0.00016287227
90	0xbdd76e76	-0.105191156
91	0x3dfb8af8	0.122823656
92	0x3cb044e5	0.021517226
93	0x3d24c131	0.040223304
94	0xbde5ca78	-0.112202585
95	0xbde3ae60	-0.11117244
96	0x3df82f01	0.1211834
97	0xbd94c3b3	-0.07263889
98	0xbdaab97f	-0.08336162
99	0x3dc19cfe	0.09453772
100	0x3da30a7b	0.07960983
101	0x3d29eff0	0.041488588
102	0x3d81e30f	0.06342136
103	0xbdf069d8	-0.11738938
104	0x3d5f8fca	0.054580487
105	0xbd699fce	-0.057037167
106	0xbd44118d	-0.0478683
107	0xbc6ec21d	-0.014572647
108	0xbc60eee4	-0.013728831
109	0x3b7b12db	0.00383108
110	0x3d7adde0	0.061246753
111	0x3de838ad	0.11338935
112	0xbba784c5	-0.005112263
113	0x3cb89184	0.022530325
114	0x3b98d3e3	0.0046639307
115	0xbdef6437	-0.11689036
116	0x3da71300	0.08157921
117	0x3d546812	0.05185706
118	0x3de7e60d	0.113231756
119	0xbd1d7601	-0.038442615
120	0x3db1e1b7	0.0868563
121	0x3d4c3577	0.049855676
122	0xbdca17c8	-0.09867817
123	0x3df105d5	0.117686905
124	0xbd9f980a	-0.07792671
125	0x3db59b17	0.08867472
126	0xbb9fffb9	-0.0048827794
127	0x3c5649ed	0.013079149

coefficient2 f4 [128, 1]
0	0x3e026ae0	0.12736082
1	0xbe9391d5	-0.288222
2	0x3e8fcbdb	0.28085217
3	0x3e65d4a6	0.224444
4	0x3dd7d285	0.105382
5	0x3abe81cb	0.0014534531
6	0xbe2cc878	-0.16873348
7	0xbe29be53	-0.16576509
8	0x3e209cc2	0.15684798
9	0x3af8c42b	0.0018979361
10	0x3da2615b	0.07928725
11	0xbde5f6c7	-0.1122871
12	0x3e6981fa	0.22803488
13	0x3e6d263a	0.23159114
14	0x3e0f28b8	0.13980377
15	0x3e41f4bc	0.18941015
16	0xbe2fb17e	-0.17157552
17	0x3acf2319	0.0015803307
18	0xbe0aee9a	-0.13567582
19	0xbe7eb091	-0.24872042
20	0x3e3374e8	0.17525065
21	0xbddf0f78	-0.10891622
22	0xbe2a335e	-0.16621158
23	0x3e56ba8f	0.20969604
24	0x3eb6b6f3	0.35686454
25	0xbe33fa1e	-0.17575881
26	0xbd952409	-0.07282264
27	0xbe17ed16	-0.14836535
28	0x3e5c34c8	0.2150451
29	0xbde94dea	-0.11391814
30	0xbe33d2d3	-0.17560892
31	0xbdf1b42e	-0.11801945
32	0x3e22845c	0.15870804
33	0xbe369232	-0.17829207
34	0xbe20dcf8	-0.15709293
35	0x3e0e97d5	0.13925107
36	0xbe80e3b0	-0.25173712
37	0xa6233f45	-5.663773e-16
38	0xbc9e4f1e	-0.019324835
39	0xbe356703	-0.17715077
40	0x3db9ec35	0.09078256
41	0x3d87d796	0.06632917
42	0xbe815476	-0.2525975
43	0x3dee50f0	0.11636531
44	0xbe358b8d	-0.17729016
45	0x3e5e5ea1	0.21715786
46	0x3d83bc34	0.06432381
47	0xbd4ac8c3	-0.049507868
48	0x3e67e182	0.22644618
49	0x3e4178b6	0.18893704
50	0xbe7631e0	-0.24042463
51	0xbe0c97f3	-0.13729839
52	0xbdd90d15	-0.10598198
53	0x3e809c50	0.25119257
54	0xbe0204d6	-0.12697157
55	0xbeb9d79e	-0.36297315
56	0xbe30b1c2	-0.17255309
57	0x3e1a92f7	0.15095125
58	0xbb438fdd	-0.0029840388
59	0x3e5f160b	0.21785752
60	0x3e015e8f	0.12633727
61	0xbe4a4a3f	-0.19754885
62	0xbe069989	-0.13144507
63	0x3e31782f	0.17331003
64	0x3ec1f3a6	0.37881202
65	0xbe142ecd	-0.14470978
66	0x3d2649e3	0.040597808
67	0x3cf6a88d	0.030109668
68	0x3e3303ce	0.1748192
69	0xbe653d67	-0.22386704
70	0xbddb8cc3	-0.107202075
71	0x3ea58c87	0.32333776
72	0x3dadbd14	0.084833294
73	0xbd90ca65	-0.07069854
74	0x3ed22fa1	0.41051963
75	0x3df2bbe8	0.118522465
76	0x3da2b11f	0.079439394
77	0xbe093146	-0.13397703
78	0xbde6fcdc	-0.11278698
79	0x3d6318e1	0.05544365
80	0x3e67eab8	0.22648132
81	0x3e3a9eac	0.18224591
82	0xbe33db4d	-0.17564125
83	0x3e2cac62	0.16862634
84	0x3e736cb8	0.23771942
85	0xbe741b4f	-0.23838542
86	0x3e0ad091	0.13556124
87	0xbe7c0a9d	-0.24613424
88	0xbe59ee8a	-0.21282402
89	0x3e4a3f1e	0.1975064
90	0xbe35c00a	-0.17749038
91	0x3e7652d5	0.24055035
92	0x3db5e52b	0.08881601
93	0x3e0ca416	0.13734469
94	0xbe8787f7	-0.2647092
95	0x3e141688	0.1446172
96	0xbe2a8980	-0.16654015
97	0x3dd2fd20	0.10302186
98	0xbdda7526	-0.106668755
99	0xbe436f18	-0.19085348
100	0xbe82854d	-0.25492325
101	0xbdd2c90e	-0.102922544
102	0xbea5aac1	-0.32356837
103	0x3e7c5bfc	0.24644464
104	0xbe18ffde	-0.14941356
105	0x3e146fd1	0.1449578
106	0x3e0867d5	0.13320859
107	0x3df88bd8	0.12136048
108	0x3e5ffa69	0.21872868
109	0x3e318c0a	0.17338577
110	0x3dc28ec1	0.094998844
111	0xbe8b16b4	-0.2716576
112	0xbdfa602b	-0.12225374
113	0xbdb82b55	-0.0899264
114	0x3e84d149	0.25940922
115	0xbe3cb6a3	-0.18429045
116	0xbe136c0f	-0.1439669
117	0x3c62fac3	0.013853732
118	0xbe53ee5b	-0.20696394
119	0x3e237437	0.15962301
120	0x3e962915	0.29328218
121	0xbd6f1b98	-0.058375925
122	0xbe712e7f	-0.23552893
123	0xbe1267f5	-0.14297469
124	0xbe04c165	-0.12964399
125	0x3e459daf	0.19298433
126	0x3e64d0be	0.22345254
127	0x3e014add	0.12626214
